models/dqn_latest.pth (torch, 244450 bytes, 11 tensors)

feature.0.weight f4 [128, 206]
0.046311453 0.037205696 -0.0688358 -0.02879322 0.028776444 0.06334475 -0.047022447 -0.04687037
-0.0329547 -0.06405247 -0.03105807 0.00753098 -0.0073200427 0.007716313 -0.006583415 0.00061009824
0.04517083 -0.03040021 -0.04862418 -0.009062137 0.06847067 0.029982768 3.0726194e-05 0.028484657
-0.03471414 0.05335705 -0.033020664 0.0410083 0.026569568 0.06344728 0.050128214 0.056238726
-0.01749026 0.01287064 -0.0114945285 -0.06785594 -0.028625038 0.023340233 -0.04895682 0.00016638637
0.022936806 -0.022608154 -0.02301946 -0.053866804 -0.03966042 0.02735354 -0.01765282 -0.00552354
0.046410345 0.04647483 -0.014413703 0.04213366 0.051249266 -0.0020574704 -0.014448777 -0.0288698
0.06208414 -0.057269685 -0.032648105 0.031359397 0.057976544 0.06305376 0.017810166 0.0026181415
-0.0030082688 0.026846826 -0.055498976 -0.06841248 0.06625785 0.02454155 -0.0637302 0.040101394
-0.03160353 -0.04212724 0.059346274 -0.067721784 0.05986443 0.056073204 0.031446867 -0.055225935
-0.030169781 -0.006697461 -0.038826704 -0.05964717 0.061011046 -0.068861686 -0.04429102 -0.053909756
0.067458645 -0.015908007 0.02678033 0.009709291 -0.03795823 0.05201029 0.026517376 0.03666471
0.031625472 0.059831053 0.021881834 0.00974232 0.03786593 -0.051266715 -0.012392528 -0.0016674101
-0.04342054 0.054287337 -0.025471643 -0.03606499 0.048798926 -0.04731834 0.039478973 0.033694945
0.009662814 0.02652385 0.034859225 -0.020501982 0.06532988 0.016904987 0.014617659 -0.009443078
-0.05614442 -0.02383767 -0.058086734 0.04040894 0.020454898 -0.06316631 0.015400469 0.024708107
0.06427872 -0.02474859 -0.033504058 -0.057350963 -0.050659373 0.053462483 -0.030576736 0.03226774
0.024116889 -0.06102878 -0.022322394 0.01879751 -0.05042716 0.060484186 0.048153155 0.014903039
0.021901026 -0.02476874 0.022901773 0.03616558 0.0022505894 0.03951949 -0.03988779 0.04523045
-0.021055859 0.055329308 0.0056511834 -0.063078515 -0.034064487 -0.037211657 0.06944522 0.02955778
-0.057014868 0.06901795 0.009795658 -0.045453757 0.0009807721 0.0032212064 -0.004563339 0.0484642
-0.013536256 -0.024103895 0.035340562 0.056207716 0.020346299 0.0416077 -0.027183149 0.033767894
-0.040463746 -0.053931728 0.05494617 0.058578044 0.05203172 -0.0006971732 0.029022172 9.320676e-05
0.06421067 -0.038462043 -0.011039775 0.06489031 0.00977812 -0.0067081526 -0.0034208596 0.047860757
0.02929172 -0.010665312 0.019471988 0.011624649 0.030242011 -0.04311346 -0.010791045 0.039523542
0.051827274 0.022612445 -0.021832451 -0.052555583 -0.02786234 -0.032985833 0.02885671 0.06284177
-0.017767072 0.05053319 -0.035007365 -0.021263484 0.062950134 0.04597886 0.006449215 -0.06808146
0.05297342 -0.044561908 -0.038125034 -0.051077932 -0.003634408 0.008079648 0.06666505 0.024885453
-0.04616985 -0.031108659 0.039533682 0.0043375716 0.052554883 -0.032613546 -0.056850262 -0.058898028
0.028173767 -0.044303317 -0.04417978 -0.013885502 -0.04293472 -0.060887158 0.018392973 0.019747145
0.02723816 -0.036697693 -0.06660651 -0.027581342 -0.068173 -0.061062336 0.05201795 0.0009430349
-0.06212834 0.058967173 -0.030310273 0.033986993 -0.038725533 0.06712811 -0.0043110102 -0.024371553
00000000: 14b1 3d3d 0065 183d c9f9 8cbd c2df ebbc
00000010: 94bc eb3c e4ba 813d 9c9a 40bd 25fb 3fbd
00000020: 82fb 06bd f12d 83bd 7e6d febc 70c6 f63b
00000030: f8dc efbb 20d9 fc3b b0b9 d7bb 00ef 1f3a
00000040: 0c05 393d dc09 f9bc 262a 47bd 5c79 14bc
00000050: 5a3a 8c3d 6c9e f53c 00e0 0038 a858 e93c
00000060: 6a30 0ebd ec8c 5a3d ad40 07bd 52f8 273d
00000070: 6ca8 d93c a6f0 813d 3e53 4d3d 945a 663d
00000080: bc47 8fbc 60df 523c 8c53 3cbc 0ef8 8abd
00000090: 0e7f eabc 0434 bf3c f286 48bd 0078 2e39
000000a0: f8e5 bb3c bc34 b9bc 4e93 bcbc 70a3 5cbd
000000b0: f772 22bd 8814 e03c a69c 90bc d0fe b4bb
000000c0: c618 3e3d 645c 3e3d 7427 6cbc 5894 2c3d
000000d0: c0ea 513d a0d6 06bb 90ba 6cbc 5c80 ecbc
000000e0: f04b 7e3d 9e93 6abd 05ba 05bd b672 003d
000000f0: d078 6d3d 5422 813d a0e6 913c 2095 2b3b
00000100: 6026 45bb e0ed db3c e552 63bd d81b 8cbd
00000110: 32b2 873d 5c0b c93c fb84 82bd 5c41 243d
00000120: b472 01bd 9d8d 2cbd 1415 733d b8b1 8abd
00000130: 6834 753d 04ad 653d 6ece 003d 9734 62bd
00000140: 9e26 f7bc 6076 dbbb c008 1fbd 9750 74bd
00000150: b8e6 793d 5b07 8dbd 806a 35bd 7ad0 5cbd
00000160: c227 8a3d 8251 82bc 6c62 db3c b813 1f3c
00000170: 177a 1bbd be08 553d f83a d93c bc2d 163d
00000180: b689 013d 6811 753d 8841 b33c 409e 1f3c
00000190: 4e19 1b3d 0cfd 51bd 080a 4bbc 008d daba
000001a0: bcd9 31bd 665c 5e3d e8a9 d0bc e2b8 13bd
000001b0: 62e1 473d e0d0 41bd b4b4 213d b603 0a3d
000001c0: c850 1e3c 8c48 d93c 8cc8 0e3d c6f3 a7bc
000001d0: accb 853d 547c 8a3c e87e 6f3c 24b7 1abc
000001e0: b1f7 65bd 3847 c3bc 5bec 6dbd d883 253d
000001f0: 0891 a73c 575d 81bd 4052 7c3c a868 ca3c
00000200: 90a4 833d 8ebd cabc 8d3b 09bd d8e8 6abd
00000210: 3480 4fbd 7afb 5a3d 107c fabc 2e2b 043d
00000220: c890 c53c 50f9 79bd 74dd b6bc 3cfd 993c
00000230: b68c 4ebd 44be 773d 3e3c 453d e02b 743c
00000240: c869 b33c d0e7 cabc 809c bb3c 5c22 143d
00000250: a07e 133b 30df 213d 6161 23bd 9043 393d
00000260: 567d acbc fca0 623d 902d b93b 4f2f 81bd
00000270: 3487 0bbd 406b 18bd 4c39 8e3d 2823 f23c
00000280: 6c88 69bd 4859 8d3d f87d 203c b82d 3abd
00000290: 408d 803a e01a 533b 1088 95bb 6682 463d
000002a0: 2cc7 5dbc 8875 c5bc 44c1 103d 103a 663d
000002b0: 48ad a63c d66c 2a3d 32af debc 3450 0a3d
000002c0: 50bd 25bd 84e7 5cbd 3c0f 613d 88ef 6f3d
000002d0: 361f 553d 80c2 36ba e8bf ed3c 0078 c338
000002e0: e280 833d 608a 1dbd 2ce0 34bc 36e5 843d
000002f0: 6834 203c 10d0 dbbb 8030 60bb a409 443d
00000300: 30f5 ef3c 90bd 2ebc b883 9f3c 5075 3e3c
00000310: 18be f73c bd97 30bd eccc 30bc 70e3 213d
00000320: d648 543d bc3d b93c f8d9 b2bc 8644 57bd
00000330: 903f e4bc 271c 07bd e864 ec3c 30b3 803d
00000340: 408c 91bc e4fb 4e3d e263 0fbd c230 aebc
00000350: 00ec 803d 5454 3c3d f053 d33b 4b6e 8bbd
00000360: a8fa 583d 8c86 36bd ff28 1cbd 1837 51bd
00000370: 402f 6ebb 8060 043c b087 883d 94dc cb3c
00000380: 991c 3dbd 96d7 febc 12ee 213d 3022 8e3b
00000390: ca43 573d c895 05bd d2db 68bd 0f3f 71bd
000003a0: accc e63c 6577 35bd dbf5 34bd 0480 63bc
000003b0: 51dc 2fbd d064 79bd dcac 963c c4c4 a13c
000003c0: 9022 df3c 5250 16bd fe68 88bd 44f2 e1bc
000003d0: 499e 8bbd 801c 7abd c610 553d 0036 773a
000003e0: 497a 7ebd 9087 713d 404d f8bc f235 0b3d
000003f0: aa9e 1ebd 767a 893d 6043 8dbb daa6 c7bc

feature.0.bias f4 [128]
0.0005105287 0.06419064 -0.012551971 -0.029921286 0.027315632 -0.036539927 -0.06745916 -0.056729723
0.036378838 0.034885757 0.036471196 0.061678603 -0.044602722 -0.065823466 -0.025457632 0.022748157
0.04730455 0.016024701 -0.004946716 0.042598896 0.004582882 -0.049036697 -0.01834955 0.054006904
-0.04773303 -0.034913477 -0.059809983 -0.060268003 -0.047907412 -0.007187035 0.053917624 -0.06434374
-0.033610545 0.00021130592 -0.053740233 0.025534235 -0.0008752942 -0.0069759563 -0.0075805485 -0.0021163672
0.009426445 0.032123804 -0.0077780597 0.05119586 0.038030684 -0.006621562 -0.046163067 -0.062149327
0.017166995 0.05792436 -0.04137867 -0.061048556 0.0069556683 0.016458414 0.06602216 0.067966774
-0.03768166 0.053814605 0.019988827 0.022914864 0.016082391 -0.024690833 -0.032596286 -0.06762662
-0.04832866 -0.0363931 -0.015634865 -0.04703605 -0.01409585 0.062215224 -0.040035233 -0.007511221
-0.06508753 -0.012390956 -0.025784388 -0.027186599 -0.042316202 -0.023570359 -0.058424883 -0.010458328
0.026656903 -0.020099498 0.03252238 -0.037944004 -0.007781215 0.052083984 -0.058881067 -1.578033e-05
-0.061825603 0.040068053 -0.043863654 0.040738396 0.03743542 0.058109462 0.010832705 0.029900521
-0.035611454 -0.039925348 -0.06597918 -0.00500118 -0.02563063 -0.06083726 -0.009634782 0.027245276
-0.008696612 0.032468677 0.025396146 0.06055318 -0.014784943 0.03896176 -0.023156539 0.016148567
-0.00816616 -0.06566126 -0.03934908 -0.06426276 -0.0308007 0.021379605 -0.038073126 -0.035209965
-0.05796151 0.040758185 0.017093472 0.026820026 0.0041540638 -0.045275766 -0.05752236 -0.043823164
00000000: 00d5 053a 6276 833d c8a6 4dbc 7c1d f5bc
00000010: 08c5 df3c e4aa 15bd 0728 8abd 6d5d 68bd
00000020: fa01 153d 5ee4 0e3d d262 153d b4a2 7c3d
00000030: 58b1 36bd 74ce 86bd 868c d0bc 585a ba3c
00000040: 6ac2 413d 3c46 833c 1018 a2bb 2e7c 2e3d
00000050: 002c 963b b4da 48bd cc51 96bc 5836 5d3d
00000060: b683 43bd 6f01 0fbd 50fb 74bd 95db 76bd
00000070: 903a 44bd 3881 ebbb bad8 5c3d a7c6 83bd
00000080: 36ab 09bd 0092 5d39 b81e 5cbd 2c2d d13c
00000090: 0074 65ba 9096 e4bb 4066 f8bb c0b2 0abb
000000a0: 6071 1a3c 4094 033d 18df febb c0b2 513d
000000b0: 10c6 1b3d b0f9 d8bb 7c15 3dbd 4b90 7ebd
000000c0: cca1 8c3c 1842 6d3d ae7c 29bd 0d0e 7abd
000000d0: 60ec e33b ccd3 863c a036 873d 2a32 8b3d
000000e0: 1658 1abd b46c 5c3d 9cbf a33c f4b7 bb3c
000000f0: 38bf 833c 6e44 cabc af83 05bd d37f 8abd
00000100: 46f4 45bd ee10 15bd b014 80bc e0a8 40bd
00000110: 48f2 66bc 64d5 7e3d fcfb 23bd b020 f6bb
00000120: 9c4c 85bd 7003 4bbc c839 d3bc 6eb6 debc
00000130: c153 2dbd a016 c1bc ee4e 6fbd 6859 2bbc
00000140: 945f da3c b4a7 a4bc 3036 053d 2c6b 1bbd
00000150: 90f9 febb 0456 553d 462d 71bd 0060 84b7
00000160: d83c 7dbd 661e 243d 60aa 33bd 4edd 263d
00000170: e255 193d 3004 6e3d a87b 313c f0f1 f43c
00000180: 51dd 11bd c388 23bd 1820 87bd f0e0 a3bb
00000190: 54f7 d1bc 7e30 79bd 34db 1dbc 7c31 df3c
000001a0: 3c7c 0ebc e0fd 043d 940b d03c 9c06 783d
000001b0: 8c3c 72bc 5e96 1f3d c8b2 bdbc 004a 843c
000001c0: 5ccb 05bc 6979 86bd 802c 21bd 329c 83bd
000001d0: c051 fcbc 4824 af3c 91f2 1bbd 5338 10bd
000001e0: 0c69 6dbd 0ef2 263d 9c07 8c3c acb5 db3c
000001f0: d01e 883b 1573 39bd 919c 6bbd eb7f 33bd

feature.2.weight f4 [128, 128]
0.08440455 -0.049464617 0.08312502 0.008022472 0.024328522 -0.009229325 -0.014527775 0.032992914
-0.030972287 0.018361181 -0.043512627 0.012194917 0.008965306 -0.008062616 0.08627231 0.07940022
0.047862433 0.03875672 -0.046693396 0.0045149922 0.08082072 -0.0052640364 0.06609511 -0.041842073
0.008389436 0.032677196 -0.062138267 0.021891758 0.04085494 0.04407198 -0.05310349 0.033264622
-0.024677634 0.0608859 -0.06503861 -0.022400975 0.0085787475 0.0053298026 -0.03709931 -0.056384444
-0.06954448 -0.0037748814 -0.017990276 0.059848346 -0.08394644 -0.011941761 0.034772627 -0.011419848
-0.078572795 -0.07003556 -0.058725152 0.0059615 0.080959685 -0.037298705 0.08190402 0.067150004
0.027846605 -0.060034454 -0.073782474 -0.053531017 0.00915008 0.053735457 0.00783468 -0.043681476
0.058698185 -0.05183903 0.017851785 -0.0015027672 0.00466305 0.07347571 -0.08062202 0.049696617
-0.05034191 0.07450921 -0.030914195 -0.060077563 0.083677135 0.020172179 0.055810325 -0.018924609
-0.0073751807 0.04858408 -0.079097465 0.0017472282 -0.07054924 0.04372675 -0.028642744 -0.016381793
0.00952778 0.022449747 0.06446714 0.028310835 0.0009875521 0.06845168 -0.05640088 0.021211267
-0.051671837 -0.044562716 0.03724674 -0.08667679 0.059258662 0.020446323 -0.017594256 0.040915407
0.03497123 0.06554713 0.003249079 0.020777255 0.009104975 -0.023439758 0.07665544 -0.0673596
0.07760396 -0.062570274 0.016702995 -0.03766273 0.0028473437 -0.07193419 0.0049880147 0.004395224
0.017726935 -0.016558833 -0.07611221 -0.05342689 -0.01720506 -0.013711192 -0.08491251 -0.07019525
-0.08280893 -0.08675036 -0.07578563 0.030463584 -0.015538059 -0.07757371 -0.025516227 0.082518466
0.008022666 0.07787276 -0.07765597 0.081121735 0.078692354 -0.040204342 0.08041539 -0.03744524
-0.008946061 0.072357066 -0.01524514 -0.08572213 0.014956504 -0.011133984 -0.05483776 -0.0035715774
-0.04582044 -0.040849283 0.0031308234 -0.031830467 -0.04030561 -0.062303346 -0.038234 -0.0046570376
-0.031750716 -0.02097071 -0.066105075 0.08819478 -0.010754809 -0.05562674 0.081470706 0.029444829
0.080793865 0.023770213 0.026047722 0.041915856 -0.023390919 0.046171464 0.08107684 0.013282865
0.06480832 0.004457757 0.05982221 -0.04802611 0.010494947 0.025695212 -0.05465994 -0.06773717
-0.057308324 -0.08463824 -0.017968722 -0.0051647276 -0.061223406 -0.031797193 -0.028366737 -0.01575587
0.037950106 -0.080991216 0.07949077 -0.024584465 -0.07116629 0.07750162 -0.013284266 -0.036406763
0.05126404 0.0333601 -0.07813017 0.023028784 -0.07266849 0.077216215 0.063171916 -0.048157703
0.075307705 -0.024250582 -0.042511903 -0.058371864 -0.008037724 0.086834766 -0.034387372 0.04721696
-0.0112652555 -0.009548359 -0.008451253 0.058290623 0.054617517 0.0821685 0.043426357 0.016074494
0.085736506 -0.061419778 0.03733743 0.062938966 0.063349165 0.08773034 0.024692185 0.045331784
0.024222918 0.0066517442 -0.051804915 -0.07324866 -0.05915629 0.043610744 -0.018335298 -0.06381239
0.019830711 0.04655149 -0.036857944 0.010312922 0.019506752 -0.03480158 -0.05605204 -0.032572065
-0.033026006 -0.076853715 -0.069589786 -0.062800914 -0.027444944 0.05012665 0.083914615 0.056858443
00000000: 4bdc ac3d 699b 4abd 733d aa3d b070 033c
00000010: 9c4c c73c 9836 17bc e805 6ebc 9423 073d
00000020: 98b9 fdbc 306a 963c 4c3a 32bd 30cd 473c
00000030: 38e3 123c 1019 04bc 89af b03d 959c a23d
00000040: 660b 443d 5ebf 1e3d 9341 3fbd 80f2 933b
00000050: 5585 a53d f07d acbb df5c 873d 9862 2bbd
00000060: d873 093c 86d8 053d b284 7ebd 5856 b33c
00000070: 8257 273d d284 343d 0c83 59bd 7c40 083d
00000080: c028 cabc 7e63 793d f632 85bd 4082 b7bc
00000090: e08d 0c3c a0a5 ae3b 72f5 17bd 60f3 66bd
000000a0: 566d 8ebd 0064 77bb 5860 93bc 8a23 753d
000000b0: 1cec abbd 60a7 43bc be6d 0e3d 501a 3bbc
000000c0: c6ea a0bd ce6e 8fbd c989 70bd b058 c33b
000000d0: 31ce a53d 87c6 18bd 4bbd a73d f185 893d
000000e0: 901e e43c b0e6 75bd 441b 97bd 5743 5bbd
000000f0: 38ea 153c b619 5c3d 085d 003c 59eb 32bd
00000100: 826d 703d 2a55 54bd e83d 923c 80f8 c4ba
00000110: 80cc 983b 6f7a 963d 281d a5bd ae8e 4b3d
00000120: 5233 4ebd 4998 983d c43f fdbc e413 76bd
00000130: eb5e ab3d 2040 a53c 5e99 643d c807 9bbc
00000140: 80ab f1bb 1a00 473d dafd a1bd 4003 e53a
00000150: 1f7c 90bd d21a 333d 30a4 eabc 1c33 86bc
00000160: 681a 1c3c 88e8 b73c 5907 843d 20ec e73c
00000170: c070 813a 6530 8c3d 9c04 67bd 40c3 ad3c
00000180: d9a5 53bd 6587 36bd 0a90 183d 9a83 b1bd
00000190: 36b9 723d 0c7f a73c d421 90bc ea96 273d
000001a0: fe3d 0f3d 933d 863d 80ee 543b 1035 aa3c
000001b0: 082d 153c bc04 c0bc 87fd 9c3d d4f3 89bd
000001c0: d3ee 9e3d d824 80bd b8d4 883c 3c44 1abd
000001d0: 809a 3a3b 3c52 93bd 8072 a33b d005 903b
000001e0: 1438 913c 64a6 87bc b8e0 9bbd 28d6 5abd
000001f0: a0f1 8cbc e8a4 60bc 9ce6 adbd 87c2 8fbd
00000200: ba97 a9bd 2caa b1bd 7f35 9bbd c48e f93c
00000210: 5893 7ebc f7de 9ebd 6807 d1bc 71ff a83d
00000220: 8071 033c c17b 9f3d 180a 9fbd 2723 a63d
00000230: 7529 a13d 4fad 24bd d3b0 a43d 2e60 19bd
00000240: 8092 12bc f12f 943d c0c6 79bc 168f afbd
00000250: 200c 753c 506b 36bc 8f9d 60bd 2011 6abb
00000260: 37ae 3bbd 9451 27bd 802e 4d3b aa60 02bd
00000270: 7f17 25bd cb31 7fbd 419b 1cbd 109a 98bb
00000280: 0a0d 02bd c4ca abbc 1962 87bd 779f b43d
00000290: f034 30bc ddd8 63bd 1dda a63d 4836 f13c
000002a0: 4177 a53d c0b9 c23c 0862 d53c f6af 2b3d
000002b0: 509e bfbc 4a1e 3d3d 9d0b a63d 60a0 593c
000002c0: 39ba 843d 6012 923b 2208 753d 07b7 44bd
000002d0: 00f3 2b3c c47e d23c 1ae3 5fbd c9b9 8abd
000002e0: 22bc 6abd d056 adbd 2433 93bc e03c a9bb
000002f0: 65c5 7abd c63d 02bd 5c61 e8bc 7412 81bc
00000300: 9271 1b3d b9de a5bd 0fcc a23d 5c65 c9bc
00000310: a2bf 91bd 2bb9 9e3d 40a6 59bc 421f 15bd
00000320: 3efa 513d 9aa4 083d b602 a0bd dca6 bc3c
00000330: 38d3 94bd 8923 9e3d 4760 813d 0341 45bd
00000340: ed3a 9a3d 28a9 c6bc f620 2ebd 5617 6fbd
00000350: a8b0 03bc 6dd6 b13d c6d9 0cbd 9266 413d
00000360: e891 38bc b870 1cbc 2077 0abc 26c2 6e3d
00000370: 9eb6 5f3d f547 a83d d6df 313d a8ae 833c
00000380: 9f96 af3d 4e93 7bbd 22ef 183d 25e6 803d
00000390: 35bd 813d f7ab b33d 4447 ca3c d2ad 393d
000003a0: 246f c63c e0f6 d93b 6431 54bd 6503 96bd
000003b0: de4d 72bd 2ea1 323d e833 96bc 12b0 82bd
000003c0: 0474 a23c c6ac 3e3d 5bf8 16bd 88f7 283c
000003d0: a0cc 9f3c 1a8c 0ebd d396 65bd 496a 05bd
000003e0: 4746 07bd 7b65 9dbd 1785 8ebd c49d 80bd
000003f0: 38d4 e0bc 9a51 4d3d 6ddb ab3d 66e4 683d

feature.2.bias f4 [128]
-0.012768082 0.07721781 0.0406271 0.0142644495 0.0837167 0.03722348 0.035989888 0.018743314
-0.0711504 -0.034444068 -0.025227167 0.026299536 0.00712619 -0.02400443 -0.041307367 0.08286088
-0.02408804 0.0049316064 0.054849066 0.026198551 -0.005386144 -0.06576263 0.032252632 -0.046012748
0.022820055 -0.07807439 0.061262302 -0.04167413 -0.08132955 0.086458735 -0.07435073 0.057096474
0.040643804 0.040948518 0.027097143 0.017679378 0.051205687 0.061848365 -0.035932202 0.056186013
0.06693048 0.0422237 0.0634255 0.08559739 0.02654142 -0.030893005 0.024292842 0.018786862
-0.07709806 -0.031242479 0.06542652 -0.013433918 0.058080755 -0.051060442 -0.024443068 0.017730787
-0.07208336 -0.04011778 0.086923234 0.02318757 0.025422722 -0.03277731 0.022664152 -0.0058029667
0.031381585 0.08181705 0.07970872 -0.07890353 0.02181717 -0.06693549 -0.003606014 0.08065284
-0.083663344 -0.059703875 -0.070856355 0.0042374134 -0.040054794 0.006087661 0.010721728 -0.06231361
-0.014689259 0.047251575 0.06677372 -0.06156758 0.079596974 0.019296743 0.06862899 -0.0011082813
-0.034474593 0.031792 0.068807535 0.085405104 -0.009044617 0.022926591 0.004038669 -0.06450051
-0.04974641 0.017530411 0.05227662 -0.033735707 -0.08412488 0.017941378 -0.06961474 0.06819155
0.059970014 0.0041760653 -0.042742476 0.036578164 0.07041327 0.025224097 0.038041033 -0.008674726
-0.02725016 0.08500851 -0.008305728 -0.021932177 -0.07395598 0.0873385 -0.05851601 -0.02528239
-0.0040615126 0.06194555 -0.05269608 -0.0832164 -0.07258176 -0.0776445 -0.0470215 -0.036126245
00000000: 3831 51bc 5f24 9e3d 9a68 263d 70b5 693c
00000010: a973 ab3d a677 183d 226a 133d 948b 993c
00000020: 4db7 91bd 3915 0dbd 34a9 cebc 2072 d73c
00000030: d082 e93b f0a4 c4bc ea31 29bd f7b2 a93d
00000040: 4854 c5bc 5099 a13b 6aa9 603d 589e d63c
00000050: 407e b0bb 8fae 86bd 561b 043d dd77 3cbd
00000060: 20f1 ba3c 77e5 9fbd 2eee 7a3d 7eb2 2abd
00000070: 1b90 a6bd 4711 b13d 3245 98bd fedd 693d
00000080: 1e7a 263d a2b9 273d d4fa dd3c 58d4 903c
00000090: 0ebd 513d b654 7d3d a52d 13bd 4e23 663d
000000a0: d912 893d c2f2 2c3d 3be5 813d af4d af3d
000000b0: 646d d93c 5413 fdbc c801 c73c e8e6 993c
000000c0: 96e5 9dbd 3af0 ffbc 57fe 853d f019 5cbc
000000d0: 16e6 6d3d c124 51bd d43c c8bc 2840 913c
000000e0: 71a0 93bd 8b52 24bd cf04 b23d dcf3 bd3c
000000f0: 5043 d03c 8041 06bd 2caa b93c d026 bebb
00000100: fa89 003d b38f a73d 533e a33d 2d98 a1bd
00000110: ecb9 b23c 7915 89bd e052 6cbb 512d a53d
00000120: b057 abbd 0d8c 74bd 231d 91bd 00da 8a3b
00000130: 7f10 24bd 007b c73b 30aa 2f3c 8e3c 7fbd
00000140: 38ab 70bc de8a 413d a9c0 883d 492e 7cbd
00000150: bd03 a33d 3414 9e3c 5b8d 8c3d c043 91ba
00000160: 3b35 0dbd 5438 023d f7ea 8c3d dfe8 ae3d
00000170: e02f 14bc 8cd0 bb3c d056 843b d818 84bd
00000180: e4c2 4bbd f09b 8f3c 0220 563d 742e 0abd
00000190: aa49 acbd ccf9 923c 2c92 8ebd 03a8 8b3d
000001a0: 1ea3 753d 60d7 883b bc12 2fbd fcd2 153d
000001b0: d534 903d c4a2 ce3c ead0 1b3d 7020 0ebc
000001c0: ba3b dfbc f118 ae3d c014 08bc 1cab b3bc
000001d0: 3c76 97bd 87de b23d 7cae 6fbd 041d cfbc
000001e0: 7016 85bb 9eba 7d3d d8d7 57bd 5c6d aabd
000001f0: bfa5 94bd 1404 9fbd 9e99 40bd 1df9 13bd

value_stream.0.weight f4 [64, 128]
-0.06478825 -0.05711233 0.08324129 0.04565432 -0.05066855 -0.04476641 0.05026198 -0.015448414
-0.008421056 0.027257346 -0.0433431 0.06537623 0.06556264 0.083408006 0.0699893 -0.07420187
-0.00094652176 0.043271862 -0.008493461 0.07424734 0.04212045 -0.0508721 -0.030167438 -0.0025622994
0.036305144 -0.020366706 0.074626036 0.027658112 0.018021636 -0.08103354 -0.0424361 -0.06661038
0.073550574 0.08336919 0.056933023 -3.27155e-05 -0.081652544 0.08109591 -0.059080683 0.08218048
0.08234196 0.07690323 -0.06644363 0.014910534 0.0042397603 0.08836166 0.021402873 0.035980813
-0.077700056 0.042696573 0.039177023 -0.018044658 -0.08371173 -0.0046798885 0.06886504 0.020563193
-0.005028896 0.032343425 0.05768893 -0.05349767 -0.054322544 -0.03014014 0.003331706 -0.0180922
-0.010057621 0.033635847 0.057607256 -0.061676674 -0.06089791 0.020618595 0.066350184 -0.034298945
-0.003783062 -0.055999 -0.009878144 0.02207937 0.05583059 0.07823346 0.010562979 0.045701288
-0.019021675 -0.08742783 0.013290629 -0.058163367 0.013396509 -0.04750954 0.061911188 0.06086085
0.077991195 -0.044256117 -0.027318776 0.007156186 -0.0045026764 0.05993689 0.08257351 0.021310434
-0.028525744 -0.03495095 0.011724398 -0.010559805 0.07230031 0.012439072 0.05618597 -0.06936453
-0.046111256 -0.061495878 -0.054420177 0.017813504 0.04942479 -0.0023756474 -0.055675942 -0.02344963
-0.07505536 -0.058042005 0.04827892 0.045828097 -0.012024358 -0.087518066 0.041741215 0.073107414
-0.04468983 0.044736914 0.0713929 -0.037822086 0.029147752 -0.046368193 -0.045546718 -0.04395107
0.065505795 0.078462444 0.08676682 -0.070150204 0.08113413 -0.07911335 -0.0043706 -0.031060908
0.0815459 0.037784927 -0.003593713 0.012068547 -0.028913856 0.05061003 -0.08010461 -0.0731381
-0.071627006 -0.030411236 0.0034295395 0.00024583936 -0.030353043 -0.06422964 -0.06512819 0.010891616
0.06424817 -0.06555063 -0.028712928 -0.028543066 -0.023868814 0.070611276 -0.033835437 0.08231003
-0.014318496 -0.08517297 -0.062072866 -0.00958693 0.06954529 0.009932749 -0.07584398 0.03071025
-0.02599191 0.022679463 -0.011929147 -0.047262833 0.0039436817 -0.08706248 -0.028723542 0.07066221
-0.028948888 0.030256696 -0.036648337 -0.011065632 -0.07621457 -0.033893187 0.015905969 -0.06250258
-0.05566703 -0.022784963 -0.0014871731 0.06835271 0.030976623 -0.059183974 0.08627889 0.056316845
0.08684663 0.02639141 0.0034008995 -0.074703574 -0.08088409 0.035705432 0.036431566 0.059674762
-0.004056707 -0.015873745 -0.022260256 -0.047231887 0.015834212 -0.017713562 0.07867267 -0.0016969293
0.037417166 -0.053866908 0.07362824 0.030330144 -0.0050345063 -0.01810643 -0.035080824 0.037767477
-0.07582069 -0.030039303 0.018776305 0.08764077 -0.037406888 0.071855016 0.051240973 -0.03898731
0.005391665 0.026786037 -0.06730071 -0.031696863 0.06255571 0.07766887 -0.04050352 0.0069911703
-0.060415335 -0.004723102 -0.05898606 -0.019617945 -0.05117097 -0.04326081 0.05486562 -0.07230799
0.02869697 0.012253448 0.059577562 0.088203706 0.08795852 0.08078431 -0.05594676 0.013682529
-0.02382522 0.022363141 -0.06643492 -0.08154948 -0.021195337 -0.018772773 -0.05213074 0.006422065
00000000: b4af 84bd 9eee 69bd 697a aa3d 0600 3b3d
00000010: d389 4fbd fc5c 37bd 82df 4d3d 581b 7dbc
00000020: 78f8 09bc cc4a df3c 8988 31bd f9e3 853d
00000030: b545 863d d1d1 aa3d 8d56 8f3d 26f7 97bd
00000040: 0020 78ba d63d 313d 2828 0bbc fd0e 983d
00000050: 7e86 2c3d 435f 50bd b421 f7bc 40ec 27bb
00000060: b4b4 143d 14d8 a6bc 89d5 983d 4493 e23c
00000070: 1ca2 933c eaf4 a5bd 7ad1 2dbd 066b 88bd
00000080: afa1 963d 77bd aa3d 9a32 693d 0038 09b8
00000090: 7339 a7bd 9d15 a63d 96fe 71bd 3d4e a83d
000000a0: e7a2 a83d 717f 9d3d 9913 88bd 504b 743c
000000b0: b0ed 8a3b f5f6 b43d 1455 af3c 9e60 133d
000000c0: 3521 9fbd 9ae2 2e3d 1678 203d 64d2 93bc
000000d0: 0e71 abbd c059 99bb 1d09 8d3d 2474 a83c
000000e0: 70c9 a4bb 8a7a 043d 3a4b 6c3d 5f20 5bbd
000000f0: 5181 5ebd 74e8 f6bc c058 5a3b 1836 94bc
00000100: b8c8 24bc bec5 093d 96f5 6b3d aea0 7cbd
00000110: 1670 79bd 54e8 a83c 9be2 873d 0d7d 0cbd
00000120: 40ed 77bb 355f 65bd f0d7 21bc ccdf b43c
00000130: 9eae 643d dd38 a03d 5810 2d3c 4631 3b3d
00000140: 58d3 9bbc 5d0d b3bd f0c0 593c b63c 6ebd
00000150: 087d 5b3c 5d99 42bd 9696 7d3d 3a49 793d
00000160: d9b9 9f3d e745 35bd a0cb dfbc 707e ea3b
00000170: 308b 93bb 6280 753d 4d1c a93d 3893 ae3c
00000180: d2ae e9bc ba28 0fbd b017 403c 0803 2dbc
00000190: 2f12 943d 40cd 4b3c 4223 663d fe0e 8ebd
000001a0: 28df 3cbd 1ae3 7bbd b1e7 5ebd a0ed 913c
000001b0: a671 4a3d c0b0 1bbb 750c 64bd 7019 c0bc
000001c0: a0b6 99bd 74bd 6dbd 1ec0 453d 3eb6 3b3d
000001d0: d001 45bc ac3c b3bd d6f8 2a3d 57b9 953d
000001e0: af0c 37bd 0e3e 373d 7136 923d 55eb 1abd
000001f0: 44c7 ee3c 93ec 3dbd 328f 3abd 0a06 34bd
00000200: e727 863d ebb0 a03d cdb2 b13d e9aa 8fbd
00000210: a729 a63d 2e06 a2bd 4037 8fbb 7273 febc
00000220: 8901 a73d 5ec4 1a3d 8084 6bbb 28bb 453c
00000230: c0dc ecbc 764c 4f3d e30d a4bd 6ec9 95bd
00000240: 2eb1 92bd fc20 f9bc 20c2 603b 00e4 8039
00000250: f2a6 f8bc d48a 83bd ee61 85bd c072 323c
00000260: 8b94 833d 693f 86bd 6037 ebbc 26d3 e9bc
00000270: 8888 c3bc a59c 903d 0797 0abd 2992 a83d
00000280: 2098 6abc 2b6f aebd 1e40 7ebd 8012 1dbc
00000290: c36d 8e3d f8bc 223c 1754 9bbd 1094 fb3c
000002a0: fcec d4bc 48ca b93c 7872 43bc ac96 41bd
000002b0: 003a 813b d04d b2bd a24d ebbc 59b7 903d
000002c0: 3826 edbc e4dc f73c 911c 16bd a04c 35bc
000002d0: 6216 9cbd 95d3 0abd 3c4d 823c 5a01 80bd
000002e0: 1d03 64bd 88a7 babc 40ed c2ba 81fc 8b3d
000002f0: b0c2 fd3c e56a 72bd fdb2 b03d 7eac 663d
00000300: a5dc b13d cc32 d83c a0e1 5e3b 30fe 98bd
00000310: 8fa6 a5bd dc3f 123d 4439 153d 866d 743d
00000320: 20ee 84bb a809 82bc 245b b6bc 3976 41bd
00000330: c0b6 813c 081c 91bc 231f a13d 806b deba
00000340: be42 193d 8ca3 5cbd 67ca 963d ec76 f83c
00000350: 80f8 a4bb f053 94bc e9b0 0fbd 12b2 1a3d
00000360: e147 9bbd fc14 f6bc c4d0 993c 017d b33d
00000370: f737 19bd b928 933d 0ee2 513d 28b1 1fbd
00000380: 90ac b03b 646e db3c f4d4 89bd 92d4 01bd
00000390: 351d 803d db10 9f3d 05e7 25bd 3016 e53b
000003a0: 1276 77bd 40c4 9abb 5e9b 71bd d0b5 a0bc
000003b0: a798 51bd 3f32 31bd c6ba 603d 3616 94bd
000003c0: e815 eb3c b0c2 483c 9a07 743d 25a4 b43d
000003d0: 9923 b43d 3f72 a53d 6e28 65bd b02c 603c
000003e0: 1c2d c3bc e832 b73c 080f 88bd 6a03 a7bd
000003f0: d8a1 adbc 5cc9 99bc 0b87 55bd 3070 d23b

value_stream.0.bias f4 [64]
0.019303627 -0.05052853 0.07143717 0.027522534 0.08157583 -0.080844015 -0.04563234 0.08797405
0.08358622 0.0724811 0.046628438 -0.0430983 -0.05843418 -0.039612085 -0.07106745 -0.008637048
0.04238727 0.011101082 -0.05912759 0.05678963 -0.013626359 -0.004861608 -0.070736185 0.074375115
0.044137426 0.0296278 0.05376322 0.061373107 0.076544486 0.049983226 -0.051275454 -0.008415543
-0.027250614 -0.07453179 0.0134207085 -0.05918863 0.012354083 0.027492672 0.045137443 0.056929953
-0.07402131 0.031399623 -0.063316315 0.03029053 -0.020728603 0.087576665 -0.016604312 -0.08523089
-0.06327771 -0.06769566 -0.074514166 0.06521203 -0.07400827 -0.05716632 0.07674239 -0.082893305
0.019792795 0.05108974 0.055716313 0.031836994 0.06493517 0.059424855 0.058299117 -0.04300517
00000000: a422 9e3c 01f7 4ebd a74d 923d f076 e13c
00000010: 3b11 a73d 8c91 a5bd fae8 3abd bd2b b43d
00000020: 412f ab3d f970 943d 76fd 3e3d d887 30bd
00000030: ae58 6fbd 4840 22bd d08b 91bd 6882 0dbc
00000040: 469e 2d3d 50e1 353c c62f 72bd 3e9c 683d
00000050: 1841 5fbc 204e 9fbb 22de 90bd fb51 983d
00000060: 72c9 343d 00b6 f23c d236 5c3d 5e62 7b3d
00000070: 5bc3 9c3d 36bb 4c3d 3606 52bd 58e1 09bc
00000080: ae3c dfbc 20a4 98bd 88e2 5b3c c76f 72bd
00000090: c868 4a3c 5038 e13c 0ae2 383d 622f 693d
000000a0: 7c98 97bd e49c 003d fcab 81bd d823 f83c
000000b0: 08cf a9bc 655b b33d c405 88bc 888d aebd
000000c0: be97 81bd 06a4 8abd e29a 98bd e38d 853d
000000d0: a691 97bd 3b27 6abd 1d2b 9d3d f7c3 a9bd
000000e0: 8024 a23c 7a43 513d ca36 643d 8267 023d
000000f0: bbfc 843d 7a67 733d 0ecb 6e3d 3026 30bd

value_stream.2.weight f4 [1, 64]
0.015265778 -0.10009611 -0.09939109 0.090396166 0.115504384 -0.008083463 -0.07093361 -0.05357255
-0.0030019581 -0.080283776 0.07259792 0.048662588 0.049088255 0.026865661 -0.09130256 0.025296256
0.09786025 0.10682863 -0.0030093044 0.099262536 -0.07264364 0.11758004 0.0261551 -0.010738954
-0.07920717 -0.0037250668 0.0023250878 -0.030519873 0.098747835 0.08000009 -0.039766908 0.099726066
-0.03591183 -0.050894886 -0.08627838 -0.07529646 -0.056380957 -0.08463594 0.09586844 -0.07463193
-0.025186345 -0.11774644 0.07032643 -0.09792212 0.11512025 -0.030737296 0.059214994 0.04743798
0.01690434 -0.08076866 0.09181212 -0.021224618 0.03108868 0.035032123 0.0108730495 -0.1039425
-0.038692668 -0.08329208 0.10580927 -0.011287153 -0.010812834 -0.10198608 -0.025333956 -0.11118366
00000000: 501d 7a3c 30ff ccbd 8e8d cbbd a021 b93d
00000010: 908d ec3d 8070 04bc a445 91bd e46e 5bbd
00000020: 80bc 44bb d26b a4bd 38ae 943d 6c52 473d
00000030: c410 493d 6015 dc3c d6fc babd 183a cf3c
00000040: f46a c83d f8c8 da3d c037 45bb 284a cb3d
00000050: 30c6 94bd cecd f03d 3843 d63c 70f2 2fbc
00000060: 5e37 a2bd 4020 74bb 8060 183b d004 fabc
00000070: 4e3c ca3d 16d7 a33d a0e2 22bd 2e3d cc3d
00000080: 4818 13bd 2877 50bd b8b2 b0bd 0835 9abd
00000090: b8ef 66bd 9c55 adbd ac56 c43d a0d8 98bd
000000a0: 9853 cebc 0c25 f1bd 4e07 903d 648b c8bd
000000b0: 2ac4 eb3d c8cc fbbc 6c8b 723d 544e 423d
000000c0: f87a 8a3c 0a6a a5bd fe07 bc3d 40df adbc
000000d0: b0ad fe3c d87d 0f3d e024 323c cedf d4bd
000000e0: 347c 1ebd 0a95 aabd 88b2 d83d c0ed 38bc
000000f0: 5028 31bc 14de d0bd 2889 cfbc 42b4 e3bd

advantage_stream.0.weight f4 [64, 128]
-0.06329389 -0.035370488 -0.024982989 -0.038080942 0.052094273 0.07683491 0.048394002 -0.04675887
-0.047434453 -0.069514535 0.08653901 0.040172704 0.06385919 0.05337303 0.079280145 -0.081716396
-0.038525663 -0.030967407 0.017709568 -0.042025074 0.033162877 -0.03302789 0.06915402 -0.049672842
-0.024831034 -0.046221912 0.054790802 -0.002429977 0.0008944422 0.07222908 0.00377997 -0.07434657
-0.06798059 -0.052534193 -0.05910576 -0.021537453 -0.015498541 0.025431849 -0.041429993 0.060528927
-0.050658163 -0.058451854 -0.0033657104 0.07227441 -0.075936794 -0.014474995 0.014156893 -0.047507506
-0.028034292 -0.0100661665 0.040853 0.03772173 -0.06364183 -0.065777555 0.056914575 -0.026284628
0.009976737 0.04832027 -0.05743567 0.022988133 -0.06943253 0.009887643 -0.029175133 -0.05611759
-0.0009977445 -0.06729795 -0.056846898 -0.028341606 0.044981368 0.0045254454 0.06885461 -0.069678605
-0.037110955 0.053292595 -0.06685661 0.014230862 0.015156768 -0.057720616 -0.02554322 -0.011003844
0.069969885 -0.011061057 0.083672725 0.031521805 0.027991712 -0.044692423 0.07213948 0.021611199
-0.08451802 -0.061781622 -0.073814005 0.058071397 0.007816859 -0.062347263 0.026416108 0.009575576
-0.060896613 0.07392443 0.03738337 0.04736034 -0.07466527 0.0029136464 0.034361355 0.0068162903
0.05852779 -0.02497857 0.056299366 -0.05054404 0.056509994 -0.075382486 0.051592596 0.0036949217
0.038851656 0.0056225806 -0.0870034 -0.08590796 -0.024544425 -0.029561188 -0.046425648 -0.032366578
0.05067704 0.045737736 -0.04452512 0.08697172 0.028531201 -0.0046060085 -0.020521313 0.006845616
-0.019428983 0.082013376 0.04873412 -0.059191782 0.07600375 -0.03256334 -0.0068325847 -0.023289196
-0.03230225 0.08692912 0.050907783 -0.042350564 -0.0526323 0.0057326257 -0.06359151 -0.065762445
0.07136766 -0.08148336 0.08355402 0.02463992 0.08019053 -0.010255784 -0.033071715 0.051192306
0.08319495 0.03140033 0.053796463 0.028250031 0.024468176 0.083512045 -0.050789144 -0.07077104
0.062481232 -0.014298573 -0.018748805 0.060088627 0.08167262 0.0040500313 -0.019934028 -0.068136364
0.08413444 0.034360647 -0.015957654 0.011297211 -0.006279789 0.0118845925 0.029481165 0.0021876618
0.04985804 -0.0371058 -0.08358313 0.012873568 -0.06251892 0.010769196 -0.04207426 -0.07913232
-0.016448468 -0.04765657 0.056379355 -0.06416617 -0.06410287 0.039082132 -0.03883848 -0.07194764
0.013510078 -0.037598044 -0.028700866 0.040145807 -0.0786131 0.069566704 0.03784462 -0.029089533
0.0034868196 0.022907801 -0.06640904 -0.04116644 -0.056601804 0.077260055 -0.059748255 0.04046374
-0.08058821 0.08749079 -0.07789591 0.07163025 0.08768167 -0.0026908964 0.013262413 0.052390687
-0.0414484 -0.07971972 -0.06138055 0.022621095 -0.035935055 -0.086115085 -0.03821659 -0.050917324
0.037001334 0.008786529 -0.0037487373 -0.045806173 0.004710965 -0.025594287 0.0073014647 -0.061218284
-0.029224887 0.022861406 -0.038040187 -0.043945916 -0.039033353 -0.031757597 0.0059416294 0.04532931
0.072580315 -0.02089744 -0.067734525 0.028161377 -0.07057484 0.020990007 0.081987806 0.045045875
0.050485335 -0.08546559 -0.020398125 -0.087940715 0.016978085 -0.057705313 0.045388035 0.03584052
00000000: 3aa0 81bd a5e0 10bd 20a9 ccbc c3fa 1bbd
00000010: ce60 553d 9f5b 9d3d ca38 463d 3b86 3fbd
00000020: a14a 42bd a35d 8ebd 5d3b b13d 228c 243d
00000030: 9bc8 823d ae9d 5a3d a15d a23d ed5a a7bd
00000040: 16cd 1dbd 5caf fdbc a813 913c 7c22 2cbd
00000050: ccd5 073d 4148 07bd 9fa0 8d3d c075 4bbd
00000060: 746a cbbc 3053 3dbd 526c 603d 4040 1fbb
00000070: 0079 6a3a d7ec 933d 60b9 773b 0443 98bd
00000080: 6839 8bbd 182e 57bd e218 72bd 506f b0bc
00000090: 98ed 7dbc 7456 d03c 7fb2 29bd 2eed 773d
000000a0: ef7e 4fbd 366b 6fbd 4093 5cbb 9b04 943d
000000b0: c084 9bbd 8828 6dbc 50f2 673c 3b97 42bd
000000c0: 2ca8 e5bc 90ec 24bc 7a55 273d 1a82 1a3d
000000d0: a656 82bd 62b6 86bd 421f 693d dc52 d7bc
000000e0: 7875 233c 7aeb 453d aa41 6bbd 9c51 bc3c
000000f0: a432 8ebd c8ff 213c b000 efbc 8fdb 65bd
00000100: c0c6 82ba 82d3 89bd 4bd8 68bd a82c e8bc
00000110: 623e 383d 304a 943b a503 8d3d a8b3 8ebd
00000120: a801 18bd 5649 5a3d 1eec 88bd 9028 693c
00000130: 1854 783c 746c 6cbd 0440 d1bc 7849 34bc
00000140: 5f4c 8f3d 7039 35bc 9b5c ab3d 021d 013d
00000150: e04e e53c 670f 37bd ddbd 933d f809 b13c
00000160: c917 adbd ba0e 7dbd cc2b 97bd 46dc 6d3d
00000170: 4812 003c d85f 7fbd 9866 d83c e0e2 1c3c
00000180: ba6e 79bd b165 973d 4e1f 193d eafc 413d
00000190: 1bea 98bd e0f2 3e3b 7ebe 0c3d 305b df3b
000001a0: d6ba 6f3d dc9f ccbc 2a9a 663d 4407 4fbd
000001b0: 0677 673d 2262 9abd c252 533d 8026 723b
000001c0: ea22 1f3d a03d b83b d72e b2bd 83f0 afbd
000001d0: 6411 c9bc 4e2a f2bc d228 3ebd d192 04bd
000001e0: ba92 4f3d 7e57 3b3d f95f 36bd 3b1e b23d
000001f0: 44ba e93c 00ee 96bb 501c a8bc 3051 e03b
00000200: 8829 9fbc a1f6 a73d 6e9d 473d 1573 72bd
00000210: dba7 9b3d 2361 05bd e0e3 dfbb fcc8 bebc
00000220: 5d4f 04bd e507 b23d ae84 503d c977 2dbd
00000230: f794 57bd c0d8 bb3b 443c 82bd 76ae 86bd
00000240: 3529 923d bfe0 a6bd 5f1e ab3d a8d9 c93c
00000250: ef3a a43d e007 28bc 3576 07bd 06af 513d
00000260: 1d62 aa3d a29d 003d ae59 5c3d 9c6c e73c
00000270: 7c71 c83c 5d08 ab3d 4708 50bd 68f0 90bd
00000280: 52ec 7f3d 9044 6abc 1897 99bc 7e1f 763d
00000290: f943 a73d 20b6 843b b04c a3bc 148b 8bbd
000002a0: ad4e ac3d c0bd 0c3d a0b9 82bc f017 393c
000002b0: b0c6 cdbb 98b7 423c 7c82 f13c e05e 0f3b
000002c0: f237 4c3d 40fc 17bd a22d abbd a8eb 523c
000002d0: eb09 80bd 4871 303c 0f56 2cbd 2010 a2bd
000002e0: f0be 86bc 8933 43bd 0aee 663d 8e69 83bd
000002f0: 5e48 83bd 9614 203d 1915 1fbd 4959 93bd
00000300: 6059 5d3c 6800 1abd 141e ebbc ee6f 243d
00000310: e8ff a0bd fd78 8e3d f602 1b3d 2c4d eebc
00000320: 2083 643b 24a9 bb3c 7601 88bd 249e 28bd
00000330: 4bd7 67bd 853a 9e3d 96ba 74bd 4ebd 253d
00000340: 6e0b a5bd 5f2e b33d e487 9fbd e1b2 923d
00000350: 7392 b33d c059 30bb 984a 593c 9e97 563d
00000360: ccc5 29bd 1844 a3bd 2c6a 7bbd e04f b93c
00000370: a330 13bd 1b5d b0bd 0089 1cbd af8e 50bd
00000380: b68e 173d 60f5 0f3c 60ad 75bb 419f 3bbd
00000390: 705e 9a3b 1cab d1bc 2041 ef3b 06c0 7abd
000003a0: 0869 efbc d847 bb3c 07d0 1bbd a200 34bd
000003b0: 70e1 1fbd 4114 02bd 00b2 c23b 3aab 393d
000003c0: fda4 943d 1c31 abbc 66b8 8abd b0b2 e63c
000003d0: 8b89 90bd 3cf3 ab3c 39e9 a73d 0682 383d
000003e0: b6c9 4e3d 9508 afbd f819 a7bc 431a b4bd
000003f0: a015 8b3c 685c 6cbd cee8 393d 82cd 123d

advantage_stream.0.bias f4 [64]
0.08762991 -0.031140726 -0.07524976 -0.07438362 -0.05163166 -0.06247349 -0.06548592 -0.04260413
0.054233886 -0.041860797 0.083516605 -0.047937308 -0.077246666 0.05070678 -0.058231223 0.068333246
0.087841816 0.004078679 0.040724494 0.079385675 -0.0454136 0.034748346 0.017193332 0.028505892
0.07028983 -0.07828778 0.011276536 0.0136152655 0.04920154 -0.045526087 0.03231427 0.023765996
-0.04881826 -0.035756394 -0.04754727 0.05438713 -0.042796195 -0.016181536 0.0005797222 0.024290979
0.053915538 0.029249147 0.04152838 0.01931829 -0.057249308 0.08332115 0.025012307 -0.044604346
0.01954849 0.05111102 -0.01857204 0.0057270154 0.03211362 -0.008810125 0.031380214 -0.079640135
0.08029931 0.05302956 -0.051165905 0.022854887 -0.018867977 0.029715963 0.060377963 -0.069210835
00000000: 4f77 b33d d61a ffbc 8c1c 9abd 7056 98bd
00000010: b87b 53bd 34e4 7fbd 7b1d 86bd ab81 2ebd
00000020: 5a24 5e3d 3a76 2bbd c10a ab3d e959 44bd
00000030: 8033 9ebd eab1 4f3d dd83 6ebd 4df2 8b3d
00000040: 69e6 b33d 70a6 853b bace 263d f594 a23d
00000050: 9c03 3abd 4854 0e3d 08d9 8c3c 3085 e93c
00000060: 1df4 8f3d 5855 a0bd 38c1 383c 9012 5f3c
00000070: 8e87 493d 9079 3abd f85b 043d e8b0 c23c
00000080: a8f5 47bd 4c75 12bd edc0 42bd 0ac5 5e3d
00000090: 104b 2fbd 248f 84bc 80f8 173a e0fd c63c
000000a0: 8ad6 5c3d e89b ef3c aa19 2a3d 6441 9e3c
000000b0: 407e 6abd 47a4 aa3d 9ce6 cc3c 0cb3 36bd
000000c0: 2824 a03c ca59 513d 6424 98bc b0a9 bb3b
000000d0: 9289 033d 5858 10bc 8a88 003d 5e1a a3bd
000000e0: f773 a43d 8635 593d 5793 51bd 2c3a bb3c
000000f0: 0491 9abc e46e f33c e24e 773d 69be 8dbd

advantage_stream.2.weight f4 [4, 64]
0.030249387 -0.035928607 0.043453336 -0.1088696 0.05784273 -0.09277552 -0.047834262 -0.03676723
-0.11007945 -0.031051904 0.017765328 0.037407503 0.121217206 -0.012818366 -0.052192047 0.10929906
-0.050146192 0.052185833 0.031782836 -0.047580525 0.030560687 -0.028872326 -0.035966113 -0.04428695
0.07282236 0.08139373 0.0865435 -0.077683985 -0.09300579 0.077405214 0.096005976 -0.08489245
-0.026805773 0.09619984 -0.10161239 0.10417503 -0.08080408 0.07172918 -0.118843675 -0.02925165
-0.004947096 0.053926677 -0.0011422187 0.03976065 -0.09888719 -0.1191176 4.775822e-05 -0.010568485
0.075725675 0.09305188 -0.004044473 0.1201839 -0.088624895 0.04083197 0.067216486 -0.07082939
0.121823296 0.10742389 -0.026817784 0.021202624 -0.09414846 -0.11910136 0.030524239 -0.015155613
-0.0042087883 0.02219157 0.0331434 -0.116608694 0.11997788 -0.03997782 0.103891835 -0.11337273
-0.11558233 -0.073210284 -0.024001688 -0.12033747 -0.05007893 -0.085758224 -0.07950592 0.04750654
-0.10860734 -0.055812255 -0.121343255 0.055012867 -0.03344804 -0.0009967834 0.024066195 -0.014091343
0.06300485 -0.0135874 -0.0043639094 -0.016996756 -0.0065022707 -0.029485703 0.02349636 0.06599802
0.018178761 0.120791316 0.09393671 0.035684332 0.031377584 0.041409165 0.0045042336 0.08422455
-0.074086845 -0.045036167 -0.023032606 0.050572723 0.11182435 0.008997127 -0.10868204 -0.015990004
0.05260122 -0.11142868 -0.0501478 0.022013634 0.02190049 -0.040580437 -0.09412728 -0.052893072
-0.09686828 -0.059014276 0.015512392 -0.11930615 0.08431736 0.11044997 -0.061689734 -0.035166547
0.042204514 -0.0673812 0.09526877 -0.029578194 0.01808153 0.026890218 0.032661185 -0.03864014
-0.06284638 0.10299207 0.08994828 -0.03785476 0.068109706 -0.08181834 0.07922596 -0.09728305
0.0032354444 -0.09696947 0.03901559 -0.1220101 0.034221888 -0.10620724 0.11521897 0.12195085
-0.012901992 0.024790779 -0.055976674 0.0689798 0.010063142 -0.036157012 -0.085105 0.121952206
0.053835094 -0.052362263 0.087028086 0.07290588 -0.08113091 -0.015428022 0.105966 0.07956943
-0.09135498 -0.07714301 -0.05367078 -0.023111656 -0.038489982 0.00841178 0.10433917 0.102665156
0.021385387 -0.10023211 0.029072344 0.0319743 -0.010327786 0.049090073 -0.0073083937 -0.08796565
-0.07975885 -0.12245867 -0.10287638 -0.047609195 -0.11479582 -0.04017365 0.025293007 0.08037108
0.0010130256 -0.042723253 -0.06999564 0.07242106 -0.11002225 -0.07351036 -0.0671615 -0.08685225
-0.10446659 -0.0043925494 0.015780702 -0.026352644 -0.049272984 0.051484838 -0.12245037 -0.051886007
0.016457647 -0.007457167 0.053355515 -0.005408585 0.063639805 0.001409173 0.079129055 0.08362064
-0.010632813 -0.054078743 0.007199317 -0.060751304 0.02990587 0.1080354 0.053751007 0.0365375
-0.06499934 0.044554338 0.07813227 -0.059894487 0.07527186 0.120585024 -0.09984434 -0.12240851
0.0711655 -0.0578693 0.0057945997 0.056730956 0.10533255 -0.09537612 -0.042592466 -0.09616193
-0.08499952 0.011275545 -0.034742907 0.009168655 -0.044397727 -0.084463924 -0.09991971 -0.11138207
0.046314374 -0.11504492 -0.06708275 0.07376373 0.06648561 0.041734353 0.057164595 0.030967265
00000000: 90cd f73c e029 13bd 20fc 313d 06f7 debd
00000010: 80ec 6c3d 1801 bebd dced 43bd 3c99 16bd
00000020: 5671 e1bd 9060 febc 9888 913c 9c38 193d
00000030: ba40 f83d 2004 52bc 54c7 55bd 30d8 df3d
00000040: 1866 4dbd d0c0 553d b82e 023d cce3 42bd
00000050: 685a fa3c a885 ecbc 3451 13bd 3c66 35bd
00000060: e423 953d c2b1 a63d b83d b13d c818 9fbd
00000070: d279 bebd a086 9e3d c89e c43d 18dc adbd
00000080: c897 dbbc 6c04 c53d 281a d0bd b859 d53d
00000090: 9c7c a5bd c0e6 923d 5064 f3bd 28a1 efbc
000000a0: 401b a2bb 38e2 5c3d 80b6 95ba 10dc 223d
000000b0: 5e85 cabd eef3 f3bd 0050 4838 7027 2dbc
000000c0: 1016 9b3d fc91 be3d 8087 84bb fa22 f63d
000000d0: f880 b5bd 6c3f 273d cca8 893d 000f 91bd
000000e0: 7e7e f93d 0e01 dc3d f8b0 dbbc 20b1 ad3c
000000f0: e8d0 c0bd 6aeb f3bd f80d fa3c 404f 78bc
00000100: e0e9 89bb 18cb b53c 60c1 073d 8ad0 eebd
00000110: f6b6 f53d c8bf 23bd 3ec5 d43d f62f e8bd
00000120: 6eb6 ecbd 46ef 95bd 309f c4bc 7e73 f6bd
00000130: 901f 4dbd 02a2 afbd 00d4 a2bd 3896 423d
00000140: 866d debd 649b 64bd d082 f8bd 2c55 613d
00000150: d000 09bd 80a6 82ba 7826 c53c 60df 66bc
00000160: b008 813d b09d 5ebc 20ff 8ebb c83c 8bbc
00000170: 0011 d5bb 008c f1bc 707b c03c f829 873d
00000180: a0eb 943c 7061 f73d e461 c03d bc29 123d
00000190: c885 003d a89c 293d 4098 933b ec7d ac3d
000001a0: d8ba 97bd d877 38bd e0ae bcbc 5825 4f3d
000001b0: 2a04 e53d b068 133c b094 debd 78fd 82bc
000001c0: 6074 573d b834 e4bd c867 4dbd f055 b43c
000001d0: a868 b33c ac37 26bd cec5 c0bd 68a6 58bd
000001e0: e062 c6bd f4b8 71bd b027 7e3c c856 f4bd
000001f0: 94ae ac3d 9833 e23d 60ae 7cbd cc0a 10bd
00000200: a4de 2c3d 28ff 89bd 461c c33d f84d f2bc
00000210: b81f 943c e048 dc3c bcc7 053d 2045 1ebd
00000220: 9ab5 80bd 82ed d23d ce36 b83d 980d 1bbd
00000230: 1a7d 8b3d 6090 a7bd 3841 a23d 563c c7bd
00000240: c009 543b ee97 c6bd d0ce 1f3d 6ee0 f9bd
00000250: 402c 0c3d 2e83 d9bd ecf7 eb3d 5ec1 f93d
00000260: e062 53bc 0816 cb3c cc47 65bd 4845 8d3d
00000270: e0df 243c 6019 14bd 884b aebd 14c2 f93d
00000280: 3082 5c3d d079 56bd c83b b23d ae4f 953d
00000290: f627 a6bd d0c5 7cbc b404 d93d 4cf5 a23d
000002a0: 5218 bbbd 28fd 9dbd e4d5 5bbd a854 bdbc
000002b0: aca7 1dbd 90d1 093c c6af d53d 1c42 d23d
000002c0: 6830 af3c 7e46 cdbd 2029 ee3c 7cf7 023d
000002d0: e035 29bc ac12 493d 407b efbb 5627 b4bd
000002e0: 9c58 a3bd 9ccb fabd dab0 d2bd dc01 43bd
000002f0: 121a ebbd 208d 24bd 4833 cf3c 9899 a43d
00000300: 80c7 843a 94fe 2ebd e059 8fbd 7e51 943d
00000310: 5853 e1bd 9a8c 96bd f88b 89bd 98df b1bd
00000320: 94f2 d5bd 60ef 8fbb 8846 813c 80e1 d7bc
00000330: 78d2 49bd c4e1 523d 42c7 fabd 6c86 54bd
00000340: 30d2 863c 405b f4bb 508b 5a3d 803a b1bb
00000350: 9655 823d 00b4 b83a 6a0e a23d 4c41 ab3d
00000360: 4035 2ebc ac81 5dbd 40e8 eb3b 5cd6 78bd
00000370: 28fd f43c aa41 dd3d 042a 5c3d 58a8 153d
00000380: 601e 85bd 9c7e 363d d003 a03d ec53 75bd
00000390: 2228 9a3d 48f5 f63d 307b ccbd 50b1 fabd
000003a0: 38bf 913d 5c08 6dbd a0e0 bd3b b85e 683d
000003b0: 98b8 d73d 8e54 c3bd 7075 2ebd 8cf0 c4bd
000003c0: 3a14 aebd 10bd 383c 944e 0ebd 2038 163c
000003d0: 64da 35bd 6cfb acbd b4a2 ccbd 481c e4bd
000003e0: 24b4 3d3d ac9c ebbd ae62 89bd 7011 973d
000003f0: 9c29 883d a4f1 2a3d 6c25 6a3d 10af fd3c

advantage_stream.2.bias f4 [4]
0.042957634 0.11976591 -0.07893996 -0.07050906
00000000: 58f4 2f3d d447 f53d 46ab a1bd 0e67 90bd
